2025-04-26 19:44:30,733 - INFO - Model Summary:
2025-04-26 19:44:30,918 - INFO - ===============================================================================================
Layer (type:depth-idx)                        Output Shape              Param #
===============================================================================================
SlimUNet                                      [1, 1, 512, 512]          --
├─DoubleConv: 1-1                             [1, 32, 512, 512]         --
│    └─Sequential: 2-1                        [1, 32, 512, 512]         --
│    │    └─Conv2d: 3-1                       [1, 32, 512, 512]         1,184
│    │    └─BatchNorm2d: 3-2                  [1, 32, 512, 512]         64
│    │    └─ReLU: 3-3                         [1, 32, 512, 512]         --
│    │    └─Conv2d: 3-4                       [1, 32, 512, 512]         9,248
│    │    └─BatchNorm2d: 3-5                  [1, 32, 512, 512]         64
│    │    └─ReLU: 3-6                         [1, 32, 512, 512]         --
├─Down: 1-2                                   [1, 64, 256, 256]         --
│    └─Sequential: 2-2                        [1, 64, 256, 256]         --
│    │    └─MaxPool2d: 3-7                    [1, 32, 256, 256]         --
│    │    └─DoubleConv: 3-8                   [1, 64, 256, 256]         55,680
├─Down: 1-3                                   [1, 128, 128, 128]        --
│    └─Sequential: 2-3                        [1, 128, 128, 128]        --
│    │    └─MaxPool2d: 3-9                    [1, 64, 128, 128]         --
│    │    └─DoubleConv: 3-10                  [1, 128, 128, 128]        221,952
├─Down: 1-4                                   [1, 256, 64, 64]          --
│    └─Sequential: 2-4                        [1, 256, 64, 64]          --
│    │    └─MaxPool2d: 3-11                   [1, 128, 64, 64]          --
│    │    └─DoubleConv: 3-12                  [1, 256, 64, 64]          886,272
├─Down: 1-5                                   [1, 128, 32, 32]          --
│    └─Sequential: 2-5                        [1, 128, 32, 32]          --
│    │    └─MaxPool2d: 3-13                   [1, 256, 32, 32]          --
│    │    └─DoubleConv: 3-14                  [1, 128, 32, 32]          443,136
├─Up: 1-6                                     [1, 64, 64, 64]           --
│    └─Upsample: 2-6                          [1, 128, 64, 64]          --
│    └─DoubleConv: 2-7                        [1, 64, 64, 64]           --
│    │    └─Sequential: 3-15                  [1, 64, 64, 64]           258,432
├─Up: 1-7                                     [1, 32, 128, 128]         --
│    └─Upsample: 2-8                          [1, 64, 128, 128]         --
│    └─DoubleConv: 2-9                        [1, 32, 128, 128]         --
│    │    └─Sequential: 3-16                  [1, 32, 128, 128]         64,704
├─Up: 1-8                                     [1, 16, 256, 256]         --
│    └─Upsample: 2-10                         [1, 32, 256, 256]         --
│    └─DoubleConv: 2-11                       [1, 16, 256, 256]         --
│    │    └─Sequential: 3-17                  [1, 16, 256, 256]         16,224
├─Up: 1-9                                     [1, 32, 512, 512]         --
│    └─Upsample: 2-12                         [1, 16, 512, 512]         --
│    └─DoubleConv: 2-13                       [1, 32, 512, 512]         --
│    │    └─Sequential: 3-18                  [1, 32, 512, 512]         23,232
├─OutConv: 1-10                               [1, 1, 512, 512]          --
│    └─Conv2d: 2-14                           [1, 1, 512, 512]          33
===============================================================================================
Total params: 1,980,225
Trainable params: 1,980,225
Non-trainable params: 0
Total mult-adds (Units.GIGABYTES): 23.31
===============================================================================================
Input size (MB): 4.19
Forward/backward pass size (MB): 836.76
Params size (MB): 7.92
Estimated Total Size (MB): 848.88
…
