2025-04-17 22:17:27,642 - INFO - Model Summary:
2025-04-17 22:17:27,828 - INFO - ===============================================================================================
Layer (type:depth-idx)                        Output Shape              Param #
===============================================================================================
UNet                                          [1, 1, 512, 512]          --
├─DoubleConv: 1-1                             [1, 64, 512, 512]         --
│    └─Sequential: 2-1                        [1, 64, 512, 512]         --
│    │    └─Conv2d: 3-1                       [1, 64, 512, 512]         2,368
│    │    └─BatchNorm2d: 3-2                  [1, 64, 512, 512]         128
│    │    └─ReLU: 3-3                         [1, 64, 512, 512]         --
│    │    └─Conv2d: 3-4                       [1, 64, 512, 512]         36,928
│    │    └─BatchNorm2d: 3-5                  [1, 64, 512, 512]         128
│    │    └─ReLU: 3-6                         [1, 64, 512, 512]         --
├─Down: 1-2                                   [1, 128, 256, 256]        --
│    └─Sequential: 2-2                        [1, 128, 256, 256]        --
│    │    └─MaxPool2d: 3-7                    [1, 64, 256, 256]         --
│    │    └─DoubleConv: 3-8                   [1, 128, 256, 256]        221,952
├─Down: 1-3                                   [1, 256, 128, 128]        --
│    └─Sequential: 2-3                        [1, 256, 128, 128]        --
│    │    └─MaxPool2d: 3-9                    [1, 128, 128, 128]        --
│    │    └─DoubleConv: 3-10                  [1, 256, 128, 128]        886,272
├─Down: 1-4                                   [1, 512, 64, 64]          --
│    └─Sequential: 2-4                        [1, 512, 64, 64]          --
│    │    └─MaxPool2d: 3-11                   [1, 256, 64, 64]          --
│    │    └─DoubleConv: 3-12                  [1, 512, 64, 64]          3,542,016
├─Down: 1-5                                   [1, 512, 32, 32]          --
│    └─Sequential: 2-5                        [1, 512, 32, 32]          --
│    │    └─MaxPool2d: 3-13                   [1, 512, 32, 32]          --
│    │    └─DoubleConv: 3-14                  [1, 512, 32, 32]          4,721,664
├─Up: 1-6                                     [1, 256, 64, 64]          --
│    └─Upsample: 2-6                          [1, 512, 64, 64]          --
│    └─DoubleConv: 2-7                        [1, 256, 64, 64]          --
│    │    └─Sequential: 3-15                  [1, 256, 64, 64]          2,950,656
├─Up: 1-7                                     [1, 128, 128, 128]        --
│    └─Upsample: 2-8                          [1, 256, 128, 128]        --
│    └─DoubleConv: 2-9                        [1, 128, 128, 128]        --
│    │    └─Sequential: 3-16                  [1, 128, 128, 128]        738,048
├─Up: 1-8                                     [1, 64, 256, 256]         --
│    └─Upsample: 2-10                         [1, 128, 256, 256]        --
│    └─DoubleConv: 2-11                       [1, 64, 256, 256]         --
│    │    └─Sequential: 3-17                  [1, 64, 256, 256]         184,704
├─Up: 1-9                                     [1, 64, 512, 512]         --
│    └─Upsample: 2-12                         [1, 64, 512, 512]         --
│    └─DoubleConv: 2-13                       [1, 64, 512, 512]         --
│    │    └─Sequential: 3-18                  [1, 64, 512, 512]         110,976
├─OutConv: 1-10                               [1, 1, 512, 512]          --
│    └─Conv2d: 2-14                           [1, 1, 512, 512]          65
===============================================================================================
Total params: 13,395,905
Trainable params: 13,395,905
Non-trainable params: 0
Total mult-adds (Units.GIGABYTES): 123.95
===============================================================================================
Input size (MB): 4.19
Forward/backward pass size (MB): 1797.26
Params size (MB): 53.58
Estimated Total Size (MB): 1855.04
…
